…
 = True,  # randomly flip images\n        vertical_flip=False)  # randomly flip images\n\n\ndatagen.fit(x_train)","metadata":{"trusted":true,"execution":{"iopub.status.busy":"2026-03-17T16:04:52.098681Z","iopub.execute_input":"2026-03-17T16:04:52.098971Z","iopub.status.idle":"2026-03-17T16:04:52.460300Z","shell.execute_reply.started":"2026-03-17T16:04:52.098949Z","shell.execute_reply":"2026-03-17T16:04:52.459571Z"}},"outputs":[],"execution_count":12},{"cell_type":"markdown","source":"# Training the Model","metadata":{}},{"cell_type":"code","source":"model = Sequential()\nmodel.add(Conv2D(32 , (3,3) , strides = 1 , padding = 'same' , activation = 'relu' , input_shape = (150,150,1)))\nmodel.add(BatchNormalization())\nmodel.add(MaxPool2D((2,2) , strides = 2 , padding = 'same'))\n\n\nmodel.add(Conv2D(64 , (3,3) , strides = 1 , padding = 'same' , activation = 'relu'))\nmodel.add(Dropout(0.1))\nmodel.add(BatchNormalization())\nmodel.add(MaxPool2D((2,2) , strides = 2 , padding = 'same'))\n\n\nmodel.add(Conv2D(64 , (3,3) , strides = 1 , padding = 'same' , activation = 'relu'))\nmodel.add(BatchNormalization())\nmodel.add(MaxPool2D((2,2) , strides = 2 , padding = 'same'))\n\n\nmodel.add(Conv2D(128 , (3,3) , strides = 1 , padding = 'same' , activation = 'relu'))\nmodel.add(Dropout(0.2))\nmodel.add(BatchNormalization())\nmodel.add(MaxPool2D((2,2) , strides = 2 , padding = 'same'))\n\n\nmodel.add(Conv2D(256 , (3,3) , strides = 1 , padding = 'same' , activation = 'relu'))\nmodel.add(Dropout(0.2))\nmodel.add(BatchNormalization())\nmodel.add(MaxPool2D((2,2) , strides = 2 , padding = 'same'))\n\n\nmodel.add(Flatten())\n\n\nmodel.add(Dense(units = 128 , activation = 'relu'))\nmodel.add(Dropout(0.2))\n\n\nmodel.add(Dense(units = 1 , activation = 'sigmoid'))\n\n\nmodel.compile(optimizer = \"rmsprop\" , loss = 'binary_crossentropy' , metrics = ['accuracy'])\nmodel.summary()","metadata":{"trusted":true,"execution":{"iopub.status.busy":"2026-03-17T16:04:52.461436Z","iopub.execute_input":"2026-03-17T16:04:52.461681Z","iopub.status.idle":"2026-03-17T16:04:57.381714Z","shell.execute_reply.started":"2026-03-17T16:04:52.461658Z","shell.execute_reply":"2026-03-17T16:04:57.381016Z"}},"outputs":[{"name":"stdout","text":"Model: \"sequential_1\"\n_________________________________________________________________\nLayer (type)                 Output Shape              Param #   \n=================================================================\nconv2d_1 (Conv2D)            (None, 150, 150, 32)      320       \n_________________________________________________________________\nbatch_normalization_1 (Batch (None, 150, 150, 32)      128       \n_________________________________________________________________\nmax_pooling2d_1 (MaxPooling2 (None, 75, 75, 32)        0         \n_________________________________________________________________\nconv2d_2 (Conv2D)            (None, 75, 75, 64)        18496     \n_________________________________________________________________\ndropout_1 (Dropout)          (None, 75, 75, 64)        0         \n_________________________________________________________________\nbatch_normalization_2 (Batch (None, 75, 75, 64)        256       \n_________________________________________________________________\nmax_pooling2d_2 (MaxPooling2 (None, 38, 38, 64)        0         \n_________________________________________________________________\nconv2d_3 (Conv2D)            (None, 38, 38, 64)        36928     \n_________________________________________________________________\nbatch_normalization_3 (Batch (None, 38, 38, 64)        256       \n_________________________________________________________________\nmax_pooling2d_3 (MaxPooling2 (None, 19, 19, 64)        0         \n_________________________________________________________________\nconv2d_4 (Conv2D)            (None, 19, 19, 128)       73856     \n_________________________________________________________________\ndropout_2 (Dropout)          (None, 19, 19, 128)       0         \n_________________________________________________________________\nbatch_normalization_4 (Batch (None, 19, 19, 128)       512       \n_________________________________________________________________\nmax_pooling2d_4 (MaxPooling2 (None, 10, 10, 128)       0         \n_________________________________________________________________\nconv2d_5 (Conv2D)            (None, 10, 10, 256)       295168    \n_________________________________________________________________\ndropout_3 (Dropout)          (None, 10, 10, 256)       0         \n_________________________________________________________________\nbatch_normalization_5 (Batch (None, 10, 10, 256)       1024      \n_________________________________________________________________\nmax_pooling2d_5 (MaxPooling2 (None, 5, 5, 256)         0         \n_________________________________________________________________\nflatten_1 (Flatten)          (None, 6400)              0         \n_________________________________________________________________\ndense_1 (Dense)              (None, 128)               819328    \n_________________________________________________________________\ndropout_4 (Dropout)          (None, 128)               0         \n_________________________________________________________________\ndense_2 (Dense)              (None, 1)                 129       \n=================================================================\nTotal params: 1,246,401\nTrainable params: 1,245,313\nNon-trainable params: 1,088\n_________________________________________________________________\n","output_type":"stream"}],"execution_count":13},{"cell_type":"code","source":"learning_rate_reduction = ReduceLROnPlateau(monitor='val_accuracy', patience = 2, verbose=1,fac
…
